…
in: ziffer_raw/9_L3_dig3_20231005-180637.jpg  -  out: ziffer_resize/9_L3_dig3_20231005-180637.jpg
in: ziffer_raw/NaN_L3_dig1_20231005-195836 (49).jpg  -  out: ziffer_resize/NaN_L3_dig1_20231005-195836 (49).jpg
in: ziffer_raw/7_L3_dig4_20231005-180037.jpg  -  out: ziffer_resize/7_L3_dig4_20231005-180037.jpg
in: ziffer_raw/2_L1_dig4_20231005-185237.jpg  -  out: ziffer_resize/2_L1_dig4_20231005-185237.jpg
dig-s0
a_output_actual/dig-s0
File Exists
Model: "sequential"
_________________________________________________________________
 Layer (type)                Output Shape              Param #   
=================================================================
 batch_normalization (BatchN  (None, 32, 20, 3)        12        
 ormalization)                                                   
                                                                 
 conv2d (Conv2D)             (None, 32, 20, 32)        896       
                                                                 
 max_pooling2d (MaxPooling2D  (None, 16, 10, 32)       0         
 )                                                               
                                                                 
 conv2d_1 (Conv2D)           (None, 16, 10, 64)        18496     
                                                                 
 max_pooling2d_1 (MaxPooling  (None, 8, 5, 64)         0         
 2D)                                                             
                                                                 
 conv2d_2 (Conv2D)           (None, 8, 5, 64)          36928     
                                                                 
 max_pooling2d_2 (MaxPooling  (None, 4, 2, 64)         0         
 2D)                                                             
                                                                 
 flatten (Flatten)           (None, 512)               0         
                                                                 
 dense (Dense)               (None, 512)               262656    
                                                                 
 dense_1 (Dense)             (None, 11)                5643      
                                                                 
=================================================================
Total params: 324,631
Trainable params: 324,625
Non-trainable params: 6
_________________________________________________________________
512
(512, 32, 20, 3)
(512, 11)
(409, 32, 20, 3)
(103, 32, 20, 3)
Epoch 1/100
  1/103 [..............................] - ET
…
ziffer_resize/9_L1_dig2_20231005-192437.jpg 9 -1
ziffer_resize/9_L1_dig2_20231005-193037.jpg 9 -1
ziffer_resize/9_L1_dig2_20231005-193237.jpg 9 -1
ziffer_resize/9_L1_dig2_20231005-193437.jpg 9 -1
ziffer_resize/9_L1_dig2_20231005-194037.jpg 9 -1
ziffer_resize/9_L1_dig3_20231005-181637.jpg 9 -1
ziffer_resize/9_L3_dig2_20231005-181837.jpg 9 -1
dig-s1
a_output_actual/dig-s1
File Exists
Model: "sequential_1"
_________________________________________________________________
 Layer (type)                Output Shape              Param #   
=================================================================
 batch_normalization_1 (Batc  (None, 32, 20, 3)        12        
 hNormalization)                                                 
                                                                 
 conv2d_3 (Conv2D)           (None, 32, 20, 32)        896       
                                                                 
 max_pooling2d_3 (MaxPooling  (None, 16, 10, 32)       0         
 2D)                                                             
                                                                 
 conv2d_4 (Conv2D)           (None, 16, 10, 64)        18496     
                                                                 
 max_pooling2d_4 (MaxPooling  (None, 8, 5, 64)         0         
 2D)                                                             
                                                                 
 conv2d_5 (Conv2D)           (None, 8, 5, 64)          36928     
                                                                 
 max_pooling2d_5 (MaxPooling  (None, 4, 2, 64)         0         
 2D)                                                             
                                                                 
 flatten_1 (Flatten)         (None, 512)               0         
                                                                 
 dense_2 (Dense)             (None, 256)               131328    
                                                                 
 dense_3 (Dense)             (None, 11)                2827      
                                                                 
=================================================================
Total params: 190,487
Trainable params: 190,481
Non-trainable params: 6
_________________________________________________________________
512
(512, 32, 20, 3)
(512, 11)
(409, 32, 20, 3)
(103, 32, 20, 3)
Epoch 1/100
  1/103 [..............................] - ET
…
20231005	512	97	4.2841935510296025e-07	5.786857659728639e-09
20231005	512	98	5.930830297984357e-07	0.0
20231005	512	99	0.030015667900443077	0.0
20231005	512	100	4.6775946316301997e-07	0.0
dig-s1
File Exists
ziffer_resize/8_L2_dig2_20231005-193837 (1).jpg 8 0
ziffer_resize/8_L2_dig2_20231005-193837 (2).jpg 8 0
ziffer_resize/8_L3_dig3_20231005-182037.jpg 8 0
dig-s2
a_output_actual/dig-s2
File Exists
Model: "sequential_2"
_________________________________________________________________
 Layer (type)                Output Shape              Param #   
=================================================================
 batch_normalization_2 (Batc  (None, 32, 20, 3)        12        
 hNormalization)                                                 
                                                                 
 conv2d_6 (Conv2D)           (None, 32, 20, 32)        896       
                                                                 
 max_pooling2d_6 (MaxPooling  (None, 16, 10, 32)       0         
 2D)                                                             
                                                                 
 conv2d_7 (Conv2D)           (None, 16, 10, 32)        9248      
                                                                 
 max_pooling2d_7 (MaxPooling  (None, 8, 5, 32)         0         
 2D)                                                             
                                                                 
 conv2d_8 (Conv2D)           (None, 8, 5, 32)          9248      
                                                                 
 max_pooling2d_8 (MaxPooling  (None, 4, 2, 32)         0         
 2D)                                                             
                                                                 
 flatten_2 (Flatten)         (None, 256)               0         
                                                                 
 dense_4 (Dense)             (None, 256)               65792     
                                                                 
 dense_5 (Dense)             (None, 11)                2827      
                                                                 
=================================================================
Total params: 88,023
Trainable params: 88,017
Non-trainable params: 6
_________________________________________________________________
512
(512, 32, 20, 3)
(512, 11)
(409, 32, 20, 3)
(103, 32, 20, 3)
Epoch 1/100
  1/103 [..............................] - ETA:
…
ziffer_resize/7_L2_dig2_20231005-195636 (21).jpg 7 -1
ziffer_resize/7_L3_dig2_20231005-184837.jpg 7 -1
ziffer_resize/7_L3_dig2_20231005-193037.jpg 7 -1
ziffer_resize/7_L3_dig2_20231005-194637.jpg 7 -1
ziffer_resize/7_L3_dig2_20231005-194836.jpg 7 -1
ziffer_resize/8_L1_dig2_20231005-184837.jpg 8 0
ziffer_resize/9_L1_dig3_20231005-193437.jpg 9 5
dig-s3
a_output_actual/dig-s3
File Exists
Model: "sequential_3"
_________________________________________________________________
 Layer (type)                Output Shape              Param #   
=================================================================
 batch_normalization_3 (Batc  (None, 32, 20, 3)        12        
 hNormalization)                                                 
                                                                 
 conv2d_9 (Conv2D)           (None, 32, 20, 32)        896       
                                                                 
 max_pooling2d_9 (MaxPooling  (None, 16, 10, 32)       0         
 2D)                                                             
                                                                 
 conv2d_10 (Conv2D)          (None, 16, 10, 32)        9248      
                                                                 
 max_pooling2d_10 (MaxPoolin  (None, 8, 5, 32)         0         
 g2D)                                                            
                                                                 
 conv2d_11 (Conv2D)          (None, 8, 5, 32)          9248      
                                                                 
 max_pooling2d_11 (MaxPoolin  (None, 4, 2, 32)         0         
 g2D)                                                            
                                                                 
 flatten_3 (Flatten)         (None, 256)               0         
                                                                 
 dense_6 (Dense)             (None, 128)               32896     
                                                                 
 dense_7 (Dense)             (None, 11)                1419      
                                                                 
=================================================================
Total params: 53,719
Trainable params: 53,713
Non-trainable params: 6
_________________________________________________________________
512
(512, 32, 20, 3)
(512, 11)
(409, 32, 20, 3)
(103, 32, 20, 3)
Epoch 1/100
  1/103 [..............................] - ETA:
…
