…
in: ziffer_raw/3_L2_dig4_20231003-175100.jpg  -  out: ziffer_resize/3_L2_dig4_20231003-175100.jpg
in: ziffer_raw/NaN_L3_dig1_20231003-175900 (122).jpg  -  out: ziffer_resize/NaN_L3_dig1_20231003-175900 (122).jpg
in: ziffer_raw/NaN_L3_dig1_20231003-175900 (6).jpg  -  out: ziffer_resize/NaN_L3_dig1_20231003-175900 (6).jpg
dig-s0
a_output_actual/dig-s0
File Exists
Model: "sequential"
_________________________________________________________________
 Layer (type)                Output Shape              Param #   
=================================================================
 batch_normalization (BatchN  (None, 32, 20, 3)        12        
 ormalization)                                                   
                                                                 
 conv2d (Conv2D)             (None, 32, 20, 32)        896       
                                                                 
 max_pooling2d (MaxPooling2D  (None, 16, 10, 32)       0         
 )                                                               
                                                                 
 conv2d_1 (Conv2D)           (None, 16, 10, 64)        18496     
                                                                 
 max_pooling2d_1 (MaxPooling  (None, 8, 5, 64)         0         
 2D)                                                             
                                                                 
 conv2d_2 (Conv2D)           (None, 8, 5, 64)          36928     
                                                                 
 max_pooling2d_2 (MaxPooling  (None, 4, 2, 64)         0         
 2D)                                                             
                                                                 
 flatten (Flatten)           (None, 512)               0         
                                                                 
 dense (Dense)               (None, 512)               262656    
                                                                 
 dense_1 (Dense)             (None, 11)                5643      
                                                                 
=================================================================
Total params: 324,631
Trainable params: 324,625
Non-trainable params: 6
_________________________________________________________________
567
(567, 32, 20, 3)
(567, 11)
(453, 32, 20, 3)
(114, 32, 20, 3)
Epoch 1/100
  1/114 [..............................] - ET
…
ziffer_resize/9_L1_dig4_20231003-143301.jpg 9 3
ziffer_resize/9_L1_dig4_20231003-143901.jpg 9 3
ziffer_resize/9_L1_dig4_20231003-171900.jpg 9 -1
ziffer_resize/9_L1_dig4_20231003-172500.jpg 9 3
ziffer_resize/9_L1_dig4_20231003-172700.jpg 9 -1
ziffer_resize/9_L1_dig4_20231003-174300.jpg 9 -1
ziffer_resize/9_L3_dig4_20231003-171700.jpg 9 7
dig-s1
a_output_actual/dig-s1
File Exists
Model: "sequential_1"
_________________________________________________________________
 Layer (type)                Output Shape              Param #   
=================================================================
 batch_normalization_1 (Batc  (None, 32, 20, 3)        12        
 hNormalization)                                                 
                                                                 
 conv2d_3 (Conv2D)           (None, 32, 20, 32)        896       
                                                                 
 max_pooling2d_3 (MaxPooling  (None, 16, 10, 32)       0         
 2D)                                                             
                                                                 
 conv2d_4 (Conv2D)           (None, 16, 10, 64)        18496     
                                                                 
 max_pooling2d_4 (MaxPooling  (None, 8, 5, 64)         0         
 2D)                                                             
                                                                 
 conv2d_5 (Conv2D)           (None, 8, 5, 64)          36928     
                                                                 
 max_pooling2d_5 (MaxPooling  (None, 4, 2, 64)         0         
 2D)                                                             
                                                                 
 flatten_1 (Flatten)         (None, 512)               0         
                                                                 
 dense_2 (Dense)             (None, 256)               131328    
                                                                 
 dense_3 (Dense)             (None, 11)                2827      
                                                                 
=================================================================
Total params: 190,487
Trainable params: 190,481
Non-trainable params: 6
_________________________________________________________________
567
(567, 32, 20, 3)
(567, 11)
(453, 32, 20, 3)
(114, 32, 20, 3)
Epoch 1/100
  1/114 [..............................] - ET
…
ziffer_resize/1_L1_dig1_20231003-172700.jpg 1 -1
ziffer_resize/1_L1_dig1_20231003-175700.jpg 1 -1
ziffer_resize/7_L1_dig3_20231003-140501.jpg 7 1
ziffer_resize/7_L1_dig3_20231003-144301.jpg 7 1
ziffer_resize/7_L1_dig3_20231003-174300.jpg 7 1
ziffer_resize/7_L1_dig4_20231003-172300.jpg 7 1
ziffer_resize/NaN_L3_dig1_20231003-175900 (11).jpg -1 1
dig-s2
a_output_actual/dig-s2
File Exists
Model: "sequential_2"
_________________________________________________________________
 Layer (type)                Output Shape              Param #   
=================================================================
 batch_normalization_2 (Batc  (None, 32, 20, 3)        12        
 hNormalization)                                                 
                                                                 
 conv2d_6 (Conv2D)           (None, 32, 20, 32)        896       
                                                                 
 max_pooling2d_6 (MaxPooling  (None, 16, 10, 32)       0         
 2D)                                                             
                                                                 
 conv2d_7 (Conv2D)           (None, 16, 10, 32)        9248      
                                                                 
 max_pooling2d_7 (MaxPooling  (None, 8, 5, 32)         0         
 2D)                                                             
                                                                 
 conv2d_8 (Conv2D)           (None, 8, 5, 32)          9248      
                                                                 
 max_pooling2d_8 (MaxPooling  (None, 4, 2, 32)         0         
 2D)                                                             
                                                                 
 flatten_2 (Flatten)         (None, 256)               0         
                                                                 
 dense_4 (Dense)             (None, 256)               65792     
                                                                 
 dense_5 (Dense)             (None, 11)                2827      
                                                                 
=================================================================
Total params: 88,023
Trainable params: 88,017
Non-trainable params: 6
_________________________________________________________________
567
(567, 32, 20, 3)
(567, 11)
(453, 32, 20, 3)
(114, 32, 20, 3)
Epoch 1/100
  1/114 [..............................] - ETA:
…
20231003	567	97	0.004579721949994564	0.3429247736930847
20231003	567	98	0.027225833386182785	0.042258068919181824
20231003	567	99	0.029680224135518074	0.21454887092113495
20231003	567	100	0.003598496550694108	0.23288220167160034
dig-s2
File Exists
ziffer_resize/9_L3_dig4_20231003-171700.jpg 9 7
ziffer_resize/NaN_L3_dig1_20231003-175900 (11).jpg -1 1
dig-s3
a_output_actual/dig-s3
File Exists
Model: "sequential_3"
_________________________________________________________________
 Layer (type)                Output Shape              Param #   
=================================================================
 batch_normalization_3 (Batc  (None, 32, 20, 3)        12        
 hNormalization)                                                 
                                                                 
 conv2d_9 (Conv2D)           (None, 32, 20, 32)        896       
                                                                 
 max_pooling2d_9 (MaxPooling  (None, 16, 10, 32)       0         
 2D)                                                             
                                                                 
 conv2d_10 (Conv2D)          (None, 16, 10, 32)        9248      
                                                                 
 max_pooling2d_10 (MaxPoolin  (None, 8, 5, 32)         0         
 g2D)                                                            
                                                                 
 conv2d_11 (Conv2D)          (None, 8, 5, 32)          9248      
                                                                 
 max_pooling2d_11 (MaxPoolin  (None, 4, 2, 32)         0         
 g2D)                                                            
                                                                 
 flatten_3 (Flatten)         (None, 256)               0         
                                                                 
 dense_6 (Dense)             (None, 128)               32896     
                                                                 
 dense_7 (Dense)             (None, 11)                1419      
                                                                 
=================================================================
Total params: 53,719
Trainable params: 53,713
Non-trainable params: 6
_________________________________________________________________
567
(567, 32, 20, 3)
(567, 11)
(453, 32, 20, 3)
(114, 32, 20, 3)
Epoch 1/100
  1/114 [..............................] - ETA:
…
